BackEnd/breeding_model.pth (torch, 5390 bytes, 5 tensors)

fc1.weight f4 [32, 3]
00000000: 00ea 9a3d 4cbf e03e f705 843e 9f2d 423c
00000010: a725 c43e 56bd 0abe 119b 51bc e050 96be
00000020: 109a da3e fe78 07bd 7d18 b0bd 1535 84bd
00000030: db45 243c 1103 b6be 6897 5b3e c15c 1f3d
00000040: a24d 973e fdad 1e3c c214 253e 9236 af3e
00000050: 65eb 43be 7834 34bb 1921 7ebb 67a6 0b3a
00000060: a761 44bd aa98 a2be c322 fc3d a71f e83e
00000070: dbd8 593d 07dd b53d 49d2 263e 5525 da3d
00000080: c27c e53d f29e 093f 4f98 033d d20e 5d3c
00000090: 21f6 9e3d 0a5f 583d 1efc 07bf 38b7 113c
000000a0: e848 043e f91f a0be 04cc 573c a4f1 93bb
000000b0: 624a 11bc 4670 80bc 18d7 533b 9d26 44ba
000000c0: e27e 333d d422 c1bd 788a 0a3e a4a0 803d
000000d0: 1da4 68be 8957 843e 5969 0dbc 42b8 19bc
000000e0: 793e 10bb fe2e 293e 2be6 da3d 6917 db3d
000000f0: 29a1 2bbd 862b 21be da1b ccbe 3e56 15be
00000100: 1b75 9a3d 5e5e 8a3e 4c7b 00bc 2c1d b9bb
00000110: e053 6fbc 4045 983d b928 333f ab42 f63c
00000120: 1ed0 6dbe 100a 29be 996b 44be 7b7e a93d
00000130: 67de 97be 7b89 babe 3b98 4e3c 5bb7 e9be
00000140: 58bc 8f3e bd45 5d3e 13a5 f33b 81fe 403e
00000150: d5b1 673e 86b6 463d bdae d23d 299e 45bc
00000160: 1960 c7bc df17 b7bb 2687 d1bc 7d28 87be
00000170: 6cdf 3fbe 8b89 3f3c f616 0e3e 9bd7 c9be
0.07564163 0.43895948 0.257858 0.011851697 0.38309976 -0.13548788 -0.012793318 -0.29358578
0.42695665 -0.03307437 -0.08598421 -0.06455437 0.0100264205 -0.35549214 0.21444476 0.038906816
0.29551417 0.009685037 0.161212 0.3422132 -0.19132765 -0.0027497094 -0.0038777052 0.0005327225
-0.04794469 -0.31757098 0.12311318 0.4533665 0.053185325 0.08880048 0.16291155 0.10651652
0.11205436 0.53758156 0.032127675 0.013492303 0.07761789 0.05282501 -0.53119075 0.00889378
0.12918437 -0.31274393 0.0131712 -0.00451489 -0.008867832 -0.015678536 0.003232425 -0.00074825605
0.043822177 -0.09430471 0.13529384 0.0628064 -0.22718854 0.25848034 -0.008631074 -0.009382309
-0.0022009893 0.16521832 0.10688432 0.106978245 -0.04190174 -0.15739259 -0.39865 -0.1458368
0.07541867 0.2702512 -0.007841896 -0.0056492295 -0.0146074 0.074350834 0.6998401 0.030061087
-0.23223922 -0.16507745 -0.1918167 0.08276077 -0.29661867 -0.36433014 0.012609537 -0.45647702
0.28073382 0.21608634 0.00743545 0.18847086 0.22626431 0.04851391 0.10287235 -0.012061634
-0.024337815 -0.0055875625 -0.02557714 -0.26398078 -0.18737572 0.011690508 0.13875946 -0.39422306

fc1.bias f4 [32]
00000000: 3138 b43f cd72 723f 9309 bf3f 606b de3e
00000010: 2695 9f3f 8ca9 4a3f e6fc a73f 0ecf 99bc
00000020: eed5 913f 8369 bf3f 0542 463f a797 ca3f
00000030: 2d3d bf3f 18c8 4b3f fe2c 71bd a272 4cbd
00000040: 78e7 563f cba2 b03f 6248 88bd 176a 473f
00000050: 3fcc 963f def0 a93f 4571 5fbd 1a14 bc3f
00000060: f21e a13f a226 b23f 26dd c03f 3a03 b13f
00000070: d763 803f 34be aabd f33d 7e3f 3b07 753f
1.4079648 0.9470642 1.4924797 0.43441296 1.2467391 0.7916496 1.3124053 -0.01877549
1.1393411 1.4954075 0.7744449 1.5827531 1.4940544 0.79602194 -0.0588808 -0.04991401
0.83946943 1.379968 -0.06654431 0.77896255 1.1781081 1.3276632 -0.05455138 1.4693635
1.2587569 1.391804 1.5067489 1.382911 1.0030469 -0.083370596 0.99313277 0.9571416

fc2.weight f4 [16, 32]
00000000: 5c29 32bd b02d cebd 4818 8c3c d710 d6bd
00000010: a4a5 aabd 352f 17be 0860 033d b2da bfbd
00000020: 00b9 8f3d 45b5 053e e8ac 18be 681a 1fbe
00000030: 67da dabd 20c1 903b 2a68 dfbd 3ee1 debd
00000040: ea4b a43d 5ab3 59bd 00c2 cf39 0a3e 2bbe
00000050: 355b 18be ed25 d3bd a822 943c 9a23 b13d
00000060: 5dfe edbd 6f4a 8bbd ce7a f0bd 4845 5f3d
00000070: 4670 1ebe ea66 81bd ebe3 abbd 5853 0bbd
00000080: 8fc9 593f a287 c93e a89c 6c3f 0814 073f
00000090: b569 143f 5562 043f b000 ac3e c275 f03e
000000a0: 34f4 1f3f fa32 7c3f 38c2 f13e aa28 483f
000000b0: eba9 453f 86ca 093f b7ef 303f ba4a 333f
000000c0: 76a7 9f3e dc8c e33e 0d47 c73e 5843 a93e
000000d0: 0c3d 403f 3499 593f 8f52 fa3d 5f15 7c3f
000000e0: 2a3d 3e3f 5e3d 523f 99f6 393f 8ddf 363f
000000f0: 871f 503f c36b d93e 5b66 163f 400f fd3e
00000100: 85ed 363f cbf6 243f f0d0 333f 59e7 903e
00000110: f816 643f f2a4 f23e b83e d33e e884 993e
00000120: b899 0c3f 0b65 523f ce8d f03e 2c44 393f
00000130: 36c9 563f ce18 193f 1819 293f 4daa 233f
00000140: aedc ed3e f456 343f b55c 293f 8750 103f
00000150: fd92 0d3f 498c 313f 9a97 38bd 92ad 663f
00000160: b016 2a3f 18ca 4f3f c36f 343f beab 2c3f
00000170: d527 723f 5cbb f03e 4ac1 183f 6186 2f3f
00000180: e1a2 14c0 0938 823e 1d8d 82bf 2a64 233f
00000190: d92b 8a3e 3d05 273e e152 183f a5da bb3e
000001a0: 29e3 fc3e a7de 17c0 51fd c43f f91b 0dc0
000001b0: d0c4 15bf d690 1b3f aa42 a5bb 3a55 5fba
000001c0: a4a0 af3e 4fa6 abbd 0e13 deba 9495 fbbf
000001d0: e55f a23e 561d fbbd e1a0 493c 5af5 0dc0
000001e0: f8a6 a93e eff5 31be 3927 acbe 6950 18bf
000001f0: e3c8 f1bf ccac 873e 9078 e03e 91a6 fe3e
00000200: 88a4 2b3f f1af 063f f80e 533f 2e3d d13e
00000210: 6934 513f cab2 d33e 7f36 063f 65ec 363e
00000220: 78e5 093f e628 323f 0156 cc3e 2404 723f
00000230: b8bb 583f b23a 213f 2e96 e53e 62f5 133f
00000240: 1eda 043f d54d 0f3f 7f78 083f 2717 973e
00000250: 9e5d 073f aaaa 183f f8db 0d3a 0dd8 2f3f
00000260: ed96 fc3e 7bd7 363f 1494 323f 96b0 003f
00000270: 9ac9 213f 257f c33e c1e8 c33e 4fbe dc3e
00000280: ca5b 87bd 87e5 b13e 3879 47bf 0922 173f
00000290: 2959 b9be 1a95 393f a6fa 653e 33d3 133f
000002a0: a70f 693e e737 36bf 6ea3 5e3e f551 fabe
000002b0: b3ce 21bf e17c 633e 5821 b0bc aacb 2c3d
000002c0: 538a 473f c552 943d ef99 603d 52e1 2e3e
000002d0: 2773 0e3f 456c ddbd 177f c5bd 462b d8be
000002e0: 4a3f e2bd d560 44bf a7fc 68bf 7f92 2abd
000002f0: 0845 393e aa75 f33d bf51 483f ce20 6c3d
00000300: d224 e73d 2e81 2abe e3df f4bd 2df1 df3b
00000310: 0680 bd3d 9e40 e83d 54f9 44be ef17 33be
00000320: cfe8 6abe 9511 59be da93 56be e358 c4bd
00000330: 1e80 97bd 9850 0cbe e340 e23d 40be 1abe
00000340: 01ba 15be e01e c73d 0061 4fbd a1b4 1ebe
00000350: 949b 54be 724f ed3d 7c1c acbd b1dc d0bd
00000360: c085 11be 2c9c d23d cf60 5d3d 80ef 30bd
00000370: 998b adbb ebf9 bc3d 218d 593d 3233 66bd
00000380: 36e8 1f3f 422a fa3e 1646 5e3f a3b4 b53e
00000390: 3027 203f dfe7 143f 68b1 e13e 1a78 e83e
000003a0: fcfc 313f 1d39 3a3f f774 ce3e 3c0a 523f
000003b0: 1b90 743f d1b7 063f b05b f63e 978c b43e
000003c0: 487f 043f 92b5 233f dc30 033f 4172 043f
000003d0: 80e8 cf3e 08e0 223f 4520 193e 8400 5e3f
000003e0: faeb 1a3f 3c06 6d3f ad71 5d3f 283f 083f
000003f0: dbcf 333f d937 b83e 3185 083f 5799 273f
-0.043496475 -0.10067308 0.017101422 -0.10452431 -0.08332375 -0.14764102 0.032074004 -0.09367885
0.07017708 0.1305743 -0.14909708 -0.15537417 -0.10686188 0.0044175535 -0.109085396 -0.10882805
0.08022292 -0.05314956 0.00039626658 -0.16722885 -0.14878543 -0.10309968 0.018082932 0.086493686
-0.116207816 -0.068013065 -0.11742173 0.05450943 -0.15472516 -0.063184574 -0.08393081 -0.03401503
0.8507318 0.39361292 0.9242654 0.5276494 0.57973796 0.5171254 0.33594275 0.46964842
0.62482 0.98515284 0.4721849 0.7818705 0.772124 0.5382465 0.69115776 0.700359
0.3118245 0.44443405 0.38921395 0.33059192 0.7509315 0.84999394 0.12222778 0.9847011
0.7431208 0.8212489 0.72641903 0.7143486 0.81298107 0.42465028 0.5874993 0.49425697
0.71456176 0.64439076 0.7024069 0.28301504 0.8909755 0.47391468 0.41258788 0.29984212
0.54922056 0.8218543 0.46983188 0.7236965 0.83900774 0.59803474 0.66053915 0.63931733
0.46457428 0.7044518 0.66157085 0.56372875 0.5530241 0.69354683 -0.045066454 0.901086
0.6644087 0.81167746 0.70483035 0.6744956 0.9459203 0.47017944 0.59669936 0.6856442
-2.3224413 0.25433376 -1.0199314 0.63824713 0.26986578 0.16310592 0.59501463 0.3669025
0.4939206 -2.3729646 1.5389806 -2.2048323 -0.5850344 0.6076788 -0.0050433474 -0.00085194746
0.34302247 -0.0838133 -0.0016942935 -1.9655023 0.31713787 -0.12261455 0.012306423 -2.2181
0.331352 -0.17378972 -0.33623675 -0.59497696 -1.8889431 0.2649902 0.43841982 0.49736455
0.6704793 0.52612215 0.82444715 0.4086699 0.81720597 0.41347343 0.52426904 0.17863615
0.53865767 0.69593656 0.39909366 0.9453757 0.84661436 0.62980187 0.4484114 0.577963
0.5189532 0.5597814 0.5330886 0.2950985 0.52877223 0.5963541 0.0005411501 0.6868904
0.49333897 0.7142255 0.697572 0.5026945 0.63198245 0.3818294 0.38263515 0.43113944
-0.06609304 0.34745428 -0.7791934 0.5903631 -0.36200836 0.72493136 0.22458896 0.5774414
0.22759877 -0.7117905 0.21742031 -0.48890653 -0.6320602 0.22215606 -0.021500275 0.042186417
0.7794544 0.072423495 0.054834303 0.1707814 0.5564446 -0.108116664 -0.09643381 -0.42220515
-0.11047228 -0.76710254 -0.91010517 -0.041643616 0.1809274 0.11887677 0.78249735 0.057648472
0.1128632 -0.1665084 -0.119567655 0.0068341703 0.09252934 0.1134045 -0.19235736 -0.17489599
-0.22940372 -0.21198113 -0.20954838 -0.09587266 -0.07397483 -0.13702619 0.110475324 -0.15111637
-0.14621736 0.09722686 -0.050629616 -0.15498592 -0.20762473 0.115874186 -0.084038705 -0.101983435
-0.14211178 0.10283694 0.054047402 -0.043197155 -0.0052961824 0.092273556 0.053113107 -0.056201167
0.624637 0.48860365 0.8682569 0.35489377 0.62559795 0.5816631 0.44080663 0.4540413
0.6952665 0.727434 0.40323612 0.82046866 0.9553239 0.5262423 0.48116827 0.35263512
0.51756716 0.6394893 0.5124643 0.5173684 0.4060707 0.63623095 0.14953716 0.86719537
0.6051632 0.9258764 0.8650158 0.5322137 0.7023904 0.35980108 0.53328234 0.65468353

fc2.bias f4 [16]
00000000: 6890 c4bc 9784 4e3f 5e06 843f 0897 68bf
00000010: 95ac 3a3f df49 e2be 58ea f03d 8a3b 733f
00000020: 27ac a2bf b6df f83d 15fa 6e3d ab1e 7b3f
00000030: 09f7 44be 87cb c6be c3fd cbbd a1c3 043c
-0.02399464 0.80671066 1.0314443 -0.90855455 0.7291959 -0.44196984 0.117634475 0.95012724
-1.2708787 0.121520445 0.058343966 0.9809367 -0.19234861 -0.38827154 -0.099605106 0.008103282

fc3.weight f4 [1, 16]
00000000: f630 2ebe 22c8 3f3f eb7c 373f c043 0fbd
00000010: 5562 6c3f 7667 87bd 0142 4ebe 1deb 4b3f
00000020: 5d49 583b be7e 3dbe 0e0b 3abd e13f 373f
00000030: 5451 27bb b89b 13bb b024 71be e484 56be
-0.17010865 0.74914753 0.71674985 -0.03497672 0.9233754 -0.066115305 -0.20142366 0.7965563
0.0033002712 -0.1850538 -0.0454207 0.71581846 -0.0025530653 -0.0022523236 -0.23549151 -0.20949131
